classifier_weights.npy (npy, 35968 bytes, 1 tensors)

array f4 [7, 1280]
0.0055323164 -0.036959987 0.03158903 0.020782938 0.031573027 0.019370638 0.018237427 -0.026187368
-0.03008899 0.024687385 0.03349742 -0.034207348 0.0066164834 -0.05040951 0.020594196 -0.051555887
-0.055974234 -0.016043196 0.0048045074 -0.01616822 -0.020993447 0.02029455 -0.020404983 -0.06648001
-0.032737527 -0.01914905 0.0007525232 0.01770576 0.0133797815 -0.025980502 0.002831249 0.02407054
-0.0467098 -0.015945992 0.011277249 0.0044647115 -0.01861335 0.029867409 0.016701937 0.0022906074
0.024283646 0.028066695 0.01947152 -0.005285409 0.0162156 -0.020221327 0.028323792 -0.036513418
-0.050799984 -0.025090737 0.025259128 -0.029376533 0.015153123 -0.0126693165 -0.045825157 -0.013410031
0.018310418 0.011206562 0.006667712 0.009430962 0.019180587 0.016719215 -0.03211501 -0.021538623
0.018061208 -0.03129413 0.022724368 0.029240083 -0.003553605 0.015209418 -0.01620036 0.010980997
0.024280127 0.025804242 0.02429757 0.018872468 0.024201866 -0.005370551 -0.04641933 -0.02011234
-0.01904378 -0.014666351 0.01041893 0.0074650603 -0.031223856 0.01717196 0.028278569 -0.010814992
-0.038572278 -0.030002963 -0.019953212 0.010150814 -0.029611506 -0.04649339 -0.020868748 -0.006371901
-0.01253926 0.024421498 0.03683156 -0.032919057 -0.0053171343 -0.032820545 0.03424258 0.015208519
0.0018091637 -0.04393589 -0.04026811 -0.025920874 0.026812 0.027098447 0.030684866 -0.0017318658
0.031228388 -0.015222385 0.019387012 -0.04395194 0.022215735 0.025968492 0.0052465256 -0.01666208
0.015076633 0.015734605 -0.008180774 0.03317824 0.015289549 -0.0024394342 0.021737985 0.03099933
-0.002159185 0.028185686 0.021841872 0.015654307 0.02389579 0.024639426 -0.0101758 -0.047351297
0.016382761 -0.0156244645 -0.013281929 -0.0051138108 -0.0052766153 0.033276085 -0.03825136 -0.03322088
-0.0182874 0.025062652 -0.015603644 0.020285245 0.0079984525 -0.014306706 -0.010998339 -0.017660426
0.012405693 0.028254878 -0.03542574 0.01283404 -0.020897914 -0.0063714874 0.032836486 -0.011422194
0.029679114 0.01976567 -0.043827645 0.02583577 0.029234942 -0.03863859 -0.013294166 0.026724223
0.011569474 0.003021105 0.024347737 -0.03136842 -0.022371726 -0.032348614 0.0054404065 -0.023980133
-0.049031604 0.02160217 -0.02644986 -0.01072846 0.018772798 -0.030475894 0.011539647 0.0057525025
0.016647262 -0.00833146 -0.005637695 -0.028090915 0.034072407 -0.009121383 -0.017341735 0.035155747
-0.03182605 -0.0063298712 0.01793534 -0.042992376 -0.04095054 0.018732386 -0.0009669119 -0.0129012065
-0.0033617103 -0.023215625 0.02091605 0.011025195 0.010227774 -0.012169846 0.022001171 -0.019108953
0.013924713 0.025783628 0.014371948 0.01962224 0.012491071 0.021088546 -0.00045229876 -0.058796957
-0.045848463 -0.027040552 0.02226074 -0.03213517 -0.014162758 0.0321576 0.022396056 -0.018464576
0.031908344 0.031580556 0.0022168679 -0.021995852 0.021180792 0.02544763 0.016872974 0.018444676
-0.03971241 0.029599397 -0.02160026 -0.025467625 0.005745724 0.011212965 -0.013132164 -0.04338198
-0.016315708 -0.014455357 -0.029163297 -0.03990267 0.029071787 -0.003302007 -0.032487337 -0.01366156
0.017535392 -0.015370552 0.022773176 -0.0012687753 0.02515762 0.030280273 0.023307664 0.013518308
00000000: 6f48 b53b 5b63 17bd 8063 013d fb40 aa3c
00000010: b852 013d 2caf 9e3c a866 953c e486 d6bc
00000020: 307d f6bc 333d ca3c 9734 093d 011d 0cbd
00000030: 16cf d83b 347a 4ebd 29b5 a83c 442c 53bd
00000040: 3d45 65bd 056d 83bc 216f 9d3b 3773 84bc
00000050: 73fa abbc c240 a63c 5a28 a7bc ac26 88bd
00000060: c917 06bd 78de 9cbc fa44 453a ac0b 913c
00000070: df36 5b3c 10d5 d4bc 7a8c 393b 952f c53c
00000080: c652 3fbd 2ba1 82bc 36c4 383c b74c 923b
00000090: 067b 98bc 7fac f43c 80d2 883c 041e 163b
000000a0: 7fee c63c 20ec e53c bd82 9f3c 3931 adbb
000000b0: 94d6 843c 32a7 a5bc 4c07 e83c 188f 15bd
000000c0: a513 50bd 178b cdbc 3bec ce3c 0ea7 f0bc
000000d0: ce44 783c f792 4fbc 29b3 3bbd bfb5 5bbc
000000e0: bbff 953c ba9b 373c d27c da3b 5284 1a3c
000000f0: 9b20 9d3c bcf6 883c 078b 03bd c471 b0bc
00000100: 19f5 933c 462e 00bd 7428 ba3c e688 ef3c
00000110: 99e3 68bb ec30 793c 9eb6 84bc a4e9 333c
00000120: 1ee7 c63c 6b63 d33c b30b c73c 6f9a 9a3c
00000130: fe42 c63c 72fb afbb 3222 3ebd a2c2 a4bc
00000140: b401 9cbc 224b 70bc 29b4 2a3c 779d f43b
00000150: 2cc9 ffbc 36ac 8c3c 75a8 e73c 5d31 31bc
00000160: f7fd 1dbd c6c8 f5bc eb74 a3bc 9a4f 263c
00000170: d493 f2bc da6f 3ebd f0f4 aabc 61cb d0bb
00000180: 7871 4dbc 980f c83c b1dc 163d 22d6 06bd
00000190: 5b3b aebb d66e 06bd f341 0c3d 272d 793c
000001a0: 7621 ed3a 1ff6 33bd 2cf0 24bd 0358 d4bc
000001b0: d7a4 db3c 90fd dd3c d45e fb3c c6ff e2ba
000001c0: add2 ff3c 4f67 79bc 83d1 9e3c f306 34bd
000001d0: c6fd b53c e0bb d43c 0ceb ab3b ea7e 88bc
000001e0: fb03 773c dce5 803c a708 06bc e8e5 073d
000001f0: 0481 7a3c eade 1fbb dc13 b23c 4ff2 fd3c
00000200: 1d81 0dbb abe5 e63c baed b23c 763d 803c
00000210: 1bc1 c33c 9fd8 c93c 66b8 26bc 6ff3 41bd
00000220: 2435 863c c1fd 7fbc 739c 59bc c191 a7bb
00000230: 75e7 acbb 814c 083d 75ad 1cbd 9e12 08bd
00000240: 75cf 95bc 3150 cd3c 6da6 7fbc 3e2d a63c
00000250: f10b 033c ad66 6abc 6132 34bc 99ac 90bc
00000260: 3f41 4b3c c676 e73c 951a 11bd de45 523c
00000270: 1a32 abbc e9c7 d0bb 8d7f 063d 2724 3bbc
00000280: 9d21 f33c 9deb a13c 9e84 33bd 89a5 d33c
00000290: 1e7e ef3c 8043 1ebd c6cf 59bc c2ec da3c
000002a0: e48d 3d3c bbfd 453b e874 c73c 2c7c 00bd
000002b0: e944 b7bc fb7f 04bd 7045 b23b fc71 c4bc
000002c0: 5dd5 48bd 09f7 b03c 60ad d8bc 6cc6 2fbc
000002d0: 69c9 993c 95a8 f9bc ca10 3d3c 7d7f bc3b
000002e0: d75f 883c ad80 08bc 6abc b8bb eb1e e6bc
000002f0: 828f 0b3d da71 15bc 4110 8ebc 79ff 0f3d
00000300: 085c 02bd cf6a cfbb 22ed 923c c618 30bd
00000310: c1bb 27bd a974 993c 5c78 7dba 955f 53bc
00000320: 2450 5cbb b22e bebc 2358 ab3c 05a3 343c
00000330: 6592 273c 0964 47bc cd3b b43c 618a 9cbc
00000340: 7b24 643c 3038 d33c 5278 6b3c d2be a03c
00000350: 59a7 4c3c e3c1 ac3c 8322 edb9 14d5 70bd
00000360: 99cb 3bbd 2684 ddbc 285c b63c 2ba0 03bd
00000370: ea0a 68bc b0b7 033d ef77 b73c 0643 97bc
00000380: 53b2 023d 9d5a 013d df48 113b a530 b4bc
00000390: 5783 ad3c 8c77 d03c 3139 8a3c 4a19 973c
000003a0: 7ba9 22bd 6f7a f23c 07f3 b0bc 7ba1 d0bc
000003b0: a046 bc3b 95b6 373c 4a28 57bc 4eb1 31bd
000003c0: 85a8 85bc 29d6 6cbc dee7 eebc fb70 23bd
000003d0: f527 ee3c 7c66 58bb 7111 05bd bcd4 5fbc
000003e0: 62a6 8f3c c5d4 7bbc d08e ba3c 094d a6ba
000003f0: 5a17 ce3c 560e f83c b7ef be3c e57b 5d3c
